lobo.tflite (tflite, 206964 bytes, 9 tensors)

arith.constant f4 [1, 32]
00000000: 4442 b4be fa36 313e 67eb acbe 637e af3d
00000010: 259b babe 1a7e 24be 559d ef3a 640b 103d
00000020: d32b 373d fdf0 c53b 8d1f b3be 4e38 14be
00000030: 4368 853e 9035 403e ab29 5c3e 19a2 03be
00000040: b3ea 323a 60fb 173d a9f4 7d3b f9c8 8c3d
00000050: 3130 5f3e fd97 b8be b0aa b43d 4ff7 253e
00000060: c85e c7be 2fbd 3d3b 6bdc 443e 0324 2d3e
00000070: 4f05 6d3d 573b 8fbd 76c5 bebe 0622 b3be
-0.35206807 0.17306128 -0.33773348 0.08569028 -0.3644649 -0.16063729 0.0018281142 0.035167113
0.04471953 0.006040691 -0.3498501 -0.14474604 0.26056108 0.18770432 0.2150027 -0.12854804
0.0006825134 0.037104964 0.0038750565 0.0687427 0.21795727 -0.36053458 0.088216186 0.16207622
-0.389395 0.0028951874 0.19224708 0.16908269 0.05786639 -0.0699374 -0.37260026 -0.34986895

arith.constant1 f4 [32, 32]
00000000: 79a4 33be f8f1 8ebd 9c59 51bd ccf9 3c3d
00000010: 403b c63d b0d3 22bd f851 593e 4cfd 843d
00000020: 3224 783d 8c08 27bc 498d a2bc 1595 273e
00000030: d458 e6bd 35b8 d2bd a65c afbc afe3 c8bd
00000040: 6eac 1bbe 9c51 373c 9a8c e93d 62ca 2c3e
00000050: 7644 803d d226 f1bd f041 433e 89eb f4bd
00000060: 39f5 443d b985 1c3e 9811 123e 71a0 3abd
00000070: c282 c8bd 6197 16be 6fd7 37bd 41ca f73d
00000080: 5f18 55bc 5fa2 463d af68 4dbd 76e2 b63d
00000090: 7d6b 0c3e 22d8 1e3e 693d ae3d ec45 04be
000000a0: b610 bebd 4adc 10be 9f26 463e c417 46be
000000b0: 0f30 013e 01f5 b6bd d068 033e f0a2 d93d
000000c0: 8929 b5bd c783 b03b a958 af3d 310a d0bd
000000d0: a4c8 623d 4675 1a3e a4af 863d cd4a a13c
000000e0: 295c 64bc df36 6bbc 2e4b eabd d9d4 9abd
000000f0: 2136 8f3d e71e b9bd 16a5 ec3d 3357 2f3d
00000100: be30 743d ce16 dcbd 8343 023e d69a cebd
00000110: d5a4 7d3b 81cf cdbd 9fbe 193e 343d d4bd
00000120: 717c c9bd 896c c63d 6bd2 0cbe c1c1 9b3d
00000130: 165c 093d 2c78 af3d 67fe 9cbd 6ffc cb3c
00000140: 3148 4dbc 621f c03d bc95 203e 9749 d03d
00000150: b3ad 53bd 6d45 2bbe a0c2 c8bd 59f2 1f3e
00000160: 84e8 1cbe b786 94bc e1fc d23d 1d11 21be
00000170: 6c6d c4bd d350 983d ef53 9a3c 1e75 ac3d
00000180: 2b11 103e e32a 1a3e 9701 10be a0fd 3a3d
00000190: d08f 03be ec8c 97bd af72 eb3c 9f90 61bc
000001a0: 57c7 b43c e476 ab3c 5307 5f3d 07c2 b93d
000001b0: e9d4 933c e76b 183e 0ba7 d03d 33ab c0bd
000001c0: ce9f 14be dc85 b83c 0f84 91bd 95ed 05be
000001d0: b6f7 0abe c9b5 38bd 9226 763c 424d 0a3e
000001e0: e3b0 00bd d1fc 11be 11fb 923d 5368 debd
000001f0: 410a e83c 1f76 21bd ea97 10bd 95dd 8fbc
00000200: 64b0 68bd 5196 1abe e5b8 4fbd b7a6 bf3d
00000210: 8496 823d cc70 1c3e d04f 57bc 64e2 a2bc
00000220: c588 8dbd e4fa debd ba14 1dbd 9e1d 483d
00000230: 35f9 073d 11c9 083e 0c32 94bb 065b 3e3b
00000240: 1cd5 0c3e 9dc6 a53c 31ca 0abe 0661 023e
00000250: 97fe 29be 10d0 18be 61d6 db3c 6f01 273e
00000260: 0b35 0fbe 56ab 113e 4869 723d d178 d43c
00000270: bbfa ad3d 0dc8 4c3d b514 d83c 0070 213c
00000280: 19b4 eebd 3644 f4bd 4993 3bbd 6cfe 84bd
00000290: 4599 9f3d 547e 15be 9d89 84bd 9f6f 223e
000002a0: 8a97 433d 857a 723c a6b0 55bc 2c15 f03d
000002b0: 6ef9 3fbb 5d21 10be dd62 e43d 4923 0fbe
000002c0: 8fd3 263e 2eeb 88bd 2d60 0bbe d4a2 073e
000002d0: 27bb 183e 0eed debd 1d7c 433d 0ad0 91bd
000002e0: f174 f63d 72a0 81bd b3c1 e1bd 0616 0b3d
000002f0: b1dc 0c3d 1e3c e53d e60a 1bbe 1972 183c
00000300: dc37 05be 2aa3 c93c c813 9abd 4eac d43d
00000310: f2b8 65bc de62 bb3d 1524 d5bd f877 0abd
00000320: 754b b9bc 74ce a33d cdf8 573d fdb1 b23d
00000330: 2283 0a3e 3034 4dbd ba99 ee3d d2c6 f33d
00000340: 5cf4 9ebd da24 213e c8bb 1c3e 3013 f9bd
00000350: f65c f03d 967f 343c 1cdd e13c 74f0 bf3c
00000360: ea10 9fbc f243 123e f9f2 38bd 516a 103e
00000370: f37a 09be d1b8 0abe e2ae db3d f8a4 c93d
00000380: 07cb 21bb f98d a6bd 1d3e 8bbd 0f03 0b3e
00000390: 191b 0f3e fa36 303d 60a3 23be 41ef 05be
000003a0: 9270 ef3b 91fc cbbd 1b2d 3a3e 47df 3b3e
000003b0: 710f f5bd 8914 043e 651f bc3d bb71 f3bc
000003c0: 375c 313e 0146 053e a33c 703d 4308 dfbd
000003d0: a87b f2bd 5277 b3bd 3a38 e2bc 22c0 29be
000003e0: 2695 00be 02f0 8c3c 6cba 4ebd 138a 41bd
000003f0: 5cfd d33d 77fe 4cb9 6c86 ba3d 7325 0dbd
-0.1754321 -0.069797456 -0.05111085 0.046136662 0.0967927 -0.039752662 0.21222675 0.06493625
0.060581394 -0.010194909 -0.01984276 0.16365464 -0.11247411 -0.10289041 -0.021406483 -0.09809052
-0.15202495 0.011188891 0.11403771 0.16874078 0.06263058 -0.117749825 0.19068122 -0.11958987
0.048085425 0.15285386 0.14264524 -0.045563165 -0.09790565 -0.14706184 -0.044883188 0.12099124
-0.013006299 0.048494693 -0.050148662 0.08929913 0.13712879 0.15512136 0.08507807 -0.12917298
-0.09280531 -0.14146534 0.1935067 -0.19345003 0.12615989 -0.089334495 0.12832952 0.10626781
-0.08845813 0.005386803 0.085618325 -0.10158194 0.055367127 0.15083799 0.065764695 0.019688988
-0.013937988 -0.014356344 -0.11440121 -0.07560129 0.06992746 -0.09039097 0.11554925 0.04280777
0.059616797 -0.10746537 0.12721066 -0.10088126 0.0038702984 -0.10049344 0.15014122 -0.10363236
-0.098381884 0.0968867 -0.13752143 0.07605315 0.033535086 0.08567843 -0.07665711 0.024900643
-0.012529419 0.09380986 0.15682119 0.10170286 -0.051679324 -0.16725703 -0.09802747 0.15619792
-0.15323073 -0.018130643 0.10302139 -0.15729184 -0.09591183 0.07437291 0.01883885 0.08420776
0.14069049 0.15055422 -0.14063106 0.045652032 -0.12847829 -0.073999256 0.028741209 -0.0137673905
0.022067709 0.020930715 0.054450344 0.09070211 0.01804586 0.14884911 0.10188111 -0.09407654
-0.14514086 0.022524767 -0.07105266 -0.13078912 -0.13571057 -0.04509524 0.015023844 0.13506034
-0.031418692 -0.14256598 0.07176793 -0.10859742 0.028325202 -0.03941929 -0.035301127 -0.017561713
-0.056808844 -0.15096404 -0.05071344 0.0935797 0.06376365 0.15277404 -0.013141587 -0.019883342
-0.06910852 -0.10887697 -0.038349845 0.04885637 0.033196647 0.13357951 -0.0045225676 0.0029045953
0.1375317 0.020236308 -0.13553692 0.12732324 -0.16601025 -0.1492312 0.026835622 0.1630914
-0.13985078 0.14225516 0.059182435 0.025936516 0.08495089 0.04999547 0.026377061 0.009853363
-0.11655445 -0.11927073 -0.04579476 -0.064938396 0.07792906 -0.14598972 -0.0647156 0.15862893
0.04775194 0.014799719 -0.013042605 0.11722788 -0.0029292959 -0.14075227 0.11151669 -0.13978304
0.1629164 -0.06685482 -0.13610907 0.13245708 0.14915143 -0.10885058 0.047725786 -0.071197584
0.120340236 -0.06329431 -0.11023273 0.03395655 0.034390155 0.11193107 -0.15140876 0.009304547
-0.1300959 0.024613936 -0.07523304 0.10384427 -0.014021145 0.09149717 -0.10407273 -0.033805817
-0.022618989 0.07998362 0.05272751 0.08725355 0.13526586 -0.050098598 0.11650415 0.11903156
-0.077614516 0.15736714 0.15306008 -0.12161863 0.11736481 0.011016747 0.027571253 0.023430087
-0.019417245 0.14283732 -0.04515359 0.14103056 -0.13425808 -0.13547064 0.107267156 0.098459184
-0.0024687664 -0.08132548 -0.067989565 0.13575386 0.1397518 0.04302118 -0.15980291 -0.1307955
0.0073071206 -0.099602826 0.18181269 0.18346892 -0.11965836 0.12898459 0.091856755 -0.029717317
0.17320333 0.13014986 0.058651578 -0.10890248 -0.11839992 -0.08762993 -0.027614702 -0.16577199
-0.12556896 0.017204288 -0.050470755 -0.04725082 0.10351059 -0.00019549752 0.0910767 -0.034459542

arith.constant2 f4 [32, 1536]
00000000: 53bc 0b3c 90be ab3c 25dc 353c dbfa 2ebd
00000010: 019c 9fb9 f591 7bbc bc40 5c3c 0495 5cbc
00000020: b57b 5aba 5738 e83b abe3 33bb 78b6 f23c
00000030: 0610 04bd b7fd 703d 2eab c0bc fe01 94bc
00000040: aeb4 773a ed2a af3c 9b7a d7bb b3b7 25bc
00000050: d2df 8abc 90fd bb39 283a 843c d22e e6bc
00000060: 7905 833c 070e cd3c 5be7 dc3a e667 373c
00000070: ef34 c73c 288c b93c dd9f 12ba 4362 00bd
00000080: b436 17bc 936f c03c 4e3a 7abc 4486 a6bb
00000090: 3511 0c3a b3f9 c1bb fd89 2c3b a49b a6bc
000000a0: f4e1 593c e33e b4bb ba9c 733c 6f92 c13c
000000b0: 0635 41bb 5107 a6bc b790 6ebb 05e0 043c
000000c0: cb4c bdbb e06d ec3c 7210 63bc 6fb3 2f3b
000000d0: d6d1 923c 992f 7c3b da86 b7bb 3561 313c
000000e0: 5b50 c13c 7edc 213c 6d8e 163c aeae df3c
000000f0: 0029 e939 e568 dabb 7df9 b73c 4885 b8bc
00000100: 3acb 40bc d0ad 24bc 558a b83c be46 b5bc
00000110: be5d 3cbb c9f0 9a3c a05b 6c3d 5b87 bfbc
00000120: ac62 143d efda 133d d217 dc3b c812 a0bb
00000130: 6500 c83c 9b92 d5bc 402e 18b7 1e21 603c
00000140: d512 5e3c bbcc bbbb e826 72bc 12c2 3bbc
00000150: 8cb9 0839 6a90 9abc a22b 14bd ab79 46bd
00000160: 81c8 8c3c 0a12 0dbc 2a42 983c ef54 263b
00000170: e32e 2cbc e2e3 8f3c 5382 45bc 22e7 6fbc
00000180: a331 923b 4550 ca3c 707b c03b 3811 94bd
00000190: 2da3 af3c c186 2f3c 705f 5a3c cbcb 8b3c
000001a0: 7b0f aebc 24e0 ffbc d4d3 a53b 9bcd 12bc
000001b0: 5bcf 22bd 1b2d 46bc 581d e73c 0c4b 14bc
000001c0: dd6c 32bc 9591 753b dab0 3b3d e364 ccbc
000001d0: 22ea 52bc c12b 2e3c 8476 793a 68ec 8ebc
000001e0: 8c30 203c 5de6 d53c ead8 70bc de54 84bc
000001f0: 4df4 963b 348f 3e3b 7b97 223c e459 17bb
00000200: 64ac 8abc d6c7 943c 5dc6 b9bc 2c4b fdbc
00000210: 32e5 c83a 2b9e 8b3c 034f 4a3d 5dc5 993c
00000220: 82c1 cd3b 22a9 133d b0f2 c23c a4f6 9abc
00000230: 46f3 e8bc 9e0f 4e3c eb30 e93c 868a c1bc
00000240: 0f90 dfbc 73a5 393d e03f 363c 69c5 16bc
00000250: 054e 41bc 2d7f 8b3c 28c1 49bc 01bb 72bb
00000260: 4269 dcbc 3c68 b0bc bfb1 bc3c 57c2 7fbc
00000270: 7f77 523c 5e6a 34bc fef1 5639 5275 64bc
00000280: 1e23 5e3b 3ed4 233c feb1 753c 21ef 3eba
00000290: d9a0 87bb c46f 213c 639a fb3c 1468 ae3a
000002a0: 3830 353c 0ef3 3cbb 9283 b4bc 0915 993a
000002b0: 4878 aebb b02e 6d3b 65ec 02bc 2780 ff3c
000002c0: 15d1 9fbc 4740 65bc 9453 27bc d1f7 be3b
000002d0: 269c 10bc de6a 823c a133 01bc b439 32bd
000002e0: d0cc a8bc f900 d5bb 68cb 223c d2cf c43b
000002f0: de24 c63c 46f7 6fbc 0b56 18bb d7e9 14bc
00000300: 9883 b43b 8db9 443c 053c b4bc bdf6 95bb
00000310: 6e1d 09bc 60c2 8abb 0d9c 90bc 88c2 c7ba
00000320: 0f06 92bc d1da b1bc 1234 c43b 192c afbc
00000330: d360 4bbc 2fe3 b03a 372b df3c 7a70 47bb
00000340: d65f 1bbd 3271 403c 4bf3 85bc 90e0 8abb
00000350: 17b9 09bd 7a87 c3bb 9fe9 43bb 2e12 41bd
00000360: abba acbb be1d a1bc 8510 e13b ee49 cebc
00000370: 0847 263b bb9e e5bc 7bec 543b fa25 19bd
00000380: e5d8 e73c 7114 c0bc b4be 8a3c 468d 80bc
00000390: ac4f afbc 520e 1dbc 00b3 ee3c acdb 9ebc
000003a0: 9a09 6f3c 98a3 59bb 6fcf b4bb d3ba dd3c
000003b0: f057 0ebd ef96 17bc ce95 85ba b7bb 08bc
000003c0: 3e5c 1f3c f9ea 6c3d 6ddd 1c3c 82be 153c
000003d0: 265f afbc 574f 213d 8b6b 31bc a4da 91bb
000003e0: 537b d1bb ee51 99bc d5c5 12bc f6d0 803c
000003f0: 3599 0ebc 7c4f 953b 40b7 f73c 6ed3 d6bc
0.008528787 0.02096489 0.01109985 -0.042719703 -0.00030443075 -0.015354623 0.013443168 -0.0134632625
-0.0008334474 0.0070867944 -0.0027448933 0.029628024 -0.032241844 0.05883571 -0.023519125 -0.018067356
0.00094492256 0.021382773 -0.006575895 -0.010114598 -0.016952429 0.00035856338 0.016141012 -0.028098498
0.01599382 0.025031103 0.0016853617 0.011194205 0.024317233 0.02264984 -0.00055932795 -0.03134371
-0.009229351 0.023490703 -0.01527269 -0.0050819237 0.000534314 -0.005919659 0.0026327365 -0.020337887
0.0132985 -0.0055006607 0.0148689095 0.023629395 -0.0029481067 -0.02026716 -0.0036402175 0.008110051
-0.0057769767 0.028860986 -0.013858901 0.0026809832 0.017922323 0.003848052 -0.0056007924 0.010826399
0.023597887 0.00987923 0.00918923 0.027304973 0.0004447177 -0.0066653364 0.022457832 -0.022524491
-0.011767203 -0.010051206 0.0225269 -0.022128459 -0.0028742398 0.018913643 0.057704568 -0.023379972
0.036226913 0.036097463 0.006716707 -0.0048850514 0.02441425 -0.026070883 -9.070674e-06 0.013679771
0.013554295 -0.005731193 -0.014779784 -0.011459844 0.00013039092 -0.01886769 -0.036174424 -0.048455875
0.017185451 -0.008610258 0.018586237 0.0025380214 -0.010509226 0.017564718 -0.0120549975 -0.014642509
0.0044614836 0.024696479 0.00587409 -0.07229847 0.021440113 0.01071328 0.013328418 0.01706495
-0.021247616 -0.031234808 0.0050606523 -0.008960153 -0.03974853 -0.012095715 0.028212234 -0.009051096
-0.010890213 0.0037470807 0.045822956 -0.02495045 -0.012873204 0.010630549 0.00095162564 -0.017446712
0.0097771995 0.026110822 -0.014700154 -0.01615375 0.0046067596 0.0029077055 0.009923811 -0.002309435
-0.016927905 0.018161695 -0.022677595 -0.030919634 0.0015327095 0.017043194 0.049391758 0.018770868
0.0062791714 0.03604997 0.023797363 -0.018916436 -0.028436314 0.012576966 0.028465709 -0.023625623
-0.027290372 0.0453238 0.011123627 -0.00920234 -0.011798386 0.017028416 -0.012314118 -0.0037037733
-0.02690566 -0.021534078 0.023033975 -0.015610299 0.012845873 -0.011011688 0.0002049878 -0.013943987
0.0033895443 0.009999333 0.01499605 -0.0007283558 -0.0041390476 0.009853307 0.030713266 0.0013306164
0.0110588595 -0.0028831395 -0.022035394 0.0011679243 -0.0053243972 0.0036191158 -0.007990931 0.031189037
-0.019508878 -0.013992376 -0.010212798 0.005827882 -0.008826291 0.015920099 -0.007885844 -0.04351206
-0.020605475 -0.00650036 0.009936191 0.0060062194 0.024187502 -0.014646357 -0.0023244645 -0.009088955
0.0055088513 0.012007129 -0.022001276 -0.0045765326 -0.008368833 -0.004234597 -0.017652536 -0.001524047
-0.017825155 -0.021710785 0.0059876526 -0.021383332 -0.012413221 0.001349544 0.027242286 -0.0030432031
-0.037933193 0.011745738 -0.016351363 -0.0042381957 -0.03362378 -0.005967078 -0.0029893888 -0.047136478
-0.005271276 -0.019667502 0.0068684244 -0.025181737 0.0025371928 -0.02802979 0.0032489586 -0.037389733
0.028301666 -0.023447247 0.016936637 -0.015692364 -0.021400295 -0.009585934 0.029138088 -0.019391857
0.014589692 -0.0033209082 -0.005517892 0.027066624 -0.034751832 -0.009252294 -0.001019174 -0.008345536
0.009726582 0.057841275 0.009574276 0.009139659 -0.021407675 0.039382305 -0.010828863 -0.004451113
-0.006392875 -0.018715825 -0.0089583 0.01572464 -0.00870352 0.0045565944 0.030238748 -0.026223864

model_8/tf.__operators__.add/AddV2/y f4 [32]
00000000: 9bed ac3c 79b8 3dbc 05b0 dd3c 1a74 64bc
00000010: ef74 e73c bacb 0a3c cdb7 93b9 ab56 b0bc
00000020: 8a0e 4bbc d018 04bc 1f90 16bc 6f4a ea3c
00000030: ba77 e7bb 8997 d13c 728c 993b 6fe3 de3b
00000040: 905f a33b ed67 6fbb 5c76 0dba dcaf a03a
00000050: e5bc 353c bd72 003c 9c21 9ebb 5705 4fbc
00000060: 4b78 c23c bcd1 973c ed4e 30bc 2088 78bc
00000070: 2730 80bc 402c 89bb 11b8 24bc 4d3c e03a
0.021109393 -0.011579626 0.027061472 -0.013943696 0.028254 0.008471424 -0.00028174967 -0.021525702
-0.012393603 -0.008062556 -0.009189635 0.028599946 -0.007063833 0.025584953 0.004685932 0.0068020145
0.004985757 -0.003653045 -0.000539636 0.0012259441 0.011092399 0.007839856 -0.004825784 -0.01263555
0.023739 0.018532626 -0.010761005 -0.0151691735 -0.01564796 -0.004186183 -0.0100536505 0.0017107815

model_8/tf.__operators__.add_1/AddV2/y f4 [32]
00000000: a2ae 60bd 653d ee3c 250b b73d 6567 08be
00000010: 5a78 c6bc c991 0b3e 7396 15be efd7 443d
00000020: c73e 153e 9379 0c3e 4eb6 b6bd 959d 393e
00000030: b24a a1bd 22e0 d5bd f40e 18be 9e51 0f3e
00000040: a168 33bd b8ca 79bd 9a46 24be 4efa d3bc
00000050: b558 c6bd db61 da3c 52bf 56bc fa97 ff3d
00000060: 1df6 26be 80a9 cc3d 200d 01bd 3532 e0bd
00000070: e187 1cbe fead d7bd 9a51 373e f2cc e73c
-0.054854043 0.02908201 0.089376725 -0.13320692 -0.02422731 0.13629831 -0.14608173 0.048057493
0.14574729 0.13718252 -0.089214906 0.18126519 -0.07875575 -0.104431406 -0.14849454 0.13995978
-0.043800954 -0.060984343 -0.16042557 -0.02587619 -0.09684888 0.02665799 -0.013107138 0.12480159
-0.16304822 0.09993267 -0.031506658 -0.10947076 -0.15286209 -0.10531233 0.17902222 0.028295968

model_8/tf.math.add_2/Add/y f4 [1, 32]
00000000: ee64 0a3b b2b6 003c c22d 113b 7e2c 2cbc
00000010: d4c8 183c d896 54bc 618c 8b3c 2405 4ebc
00000020: 84b3 5dbc ab2a 7ebc a138 093b 0475 873b
00000030: 7ada 4dbc 4c0d a93a 4d41 7dbc ead9 fdbb
00000040: 707b 4cb9 9521 b6bb 51cf 48bc d41d 44bc
00000050: c2f2 1bbc 22c0 ed3b b7ee 323c 6d9a 2b3c
00000060: 21e1 3abc 7790 2f3c c3ed 6e3c 6b77 d73b
00000070: 4ec3 82bc 53f8 a73c bbef 3bbc 196e e93a
0.0021117288 0.007856058 0.0022152518 -0.010508655 0.009325225 -0.012975417 0.017034711 -0.012574468
-0.013531569 -0.0155131025 0.0020938294 0.0041338224 -0.012564296 0.001289764 -0.015457463 -0.0077469246
-0.0001950094 -0.0055582025 -0.012256459 -0.011970002 -0.009518327 0.00725557 0.010921172 0.01047383
-0.011406214 0.010715595 0.014583054 0.006575515 -0.01596227 0.020504152 -0.01147073 0.0017809301

model_8/tf.math.add_5/Add/y f4 [1, 32]
00000000: 00c9 843e 97a9 dbbb accb 903e 8550 edbb
00000010: fb6f 7c3e 0943 e3bc 6297 203c 2305 133d
00000020: 3fa5 883c 1342 423b af46 7f3e 4968 153b
00000030: 4fc6 6c3d 091e 473d e5e3 393d 2c8c 21bd
00000040: 9c1e 98bc 1fea 0abc e9a5 4a3c c048 043d
00000050: 4ba3 383d ce63 813e 7367 923c 683d a9bb
00000060: a6ec 783e cb43 67ba c8f3 013d 85ea 1fbb
00000070: e000 8f3c f996 adbc 4787 7f3e e935 873e
0.259346 -0.0067035663 0.2828039 -0.0072422647 0.24652092 -0.027741926 0.0098017175 0.03589357
0.016680358 0.0029641434 0.24929307 0.0022797755 0.05780631 0.048612628 0.045383353 -0.03944032
-0.018569283 -0.00847867 0.012368658 0.032295942 0.045077603 0.25271457 0.017871594 -0.005164791
0.24309024 -0.00088220526 0.03172663 -0.002440126 0.017456472 -0.021190153 0.24953948 0.26408318

model_8/tf.math.multiply_10/Mul/y f4 [1, 32]
00000000: cbe2 803f c787 803f eaa6 793f df84 7f3f
00000010: 7dab 7a3f 63d4 7e3f 08fb 823f 191c 7f3f
00000020: 2297 813f 23e0 7b3f b406 813f acd9 743f
00000030: 1721 7f3f bfc9 793f ad2b 7e3f cbcd 7d3f
00000040: f2ac 723f c354 7e3f dc08 7f3f 05cb 7e3f
00000050: 4e8a 7e3f 7691 7a3f 53a9 803f 618f 7e3f
00000060: b998 7f3f 2d0b 7d3f 043b 803f 7053 843f
00000070: 1ba8 7c3f 90f1 7c3f eb3a 813f a590 7e3f
1.0069212 1.0041436 0.97520316 0.9981212 0.9791792 0.99542826 1.0232859 0.9965225
1.0124247 0.9838888 1.0080171 0.9564464 0.99659866 0.97573465 0.99285394 0.9914214
0.94795144 0.99348086 0.99622893 0.99528533 0.99429786 0.97878206 1.0051674 0.9943753
0.9984241 0.9884518 1.001801 1.0337963 0.9869401 0.98806095 1.0096105 0.9943946

model_8/tf.math.multiply_22/Mul/y f4 [1, 32]
00000000: 6856 a23f 870e 7f3f 3cb7 a93f 9e04 7f3f
00000010: f23b 9f3f 3700 7d3f 4f14 803f b508 853f
00000020: 1435 8a3f 1f5b 803f 652e 9f3f 1bb2 803f
00000030: 804d 8b3f 1bc8 893f cff9 873f 5f1b 763f
00000040: 7cb6 7b3f 884d 7f3f 290e 813f e40f 883f
00000050: 90e3 873f 232b a13f 599c 833f c623 7f3f
00000060: bbc6 9e3f 52a7 7e3f 5106 863f 08db 7f3f
00000070: 1283 823f 69de 7a3f aa97 a03f 9202 a43f
1.2682619 0.9963154 1.3259044 0.9961642 1.2440169 0.9882845 1.0006198 1.0393282
1.0797448 1.0027808 1.2436033 1.0054353 1.0883026 1.0764192 1.062311 0.96135515
0.98325324 0.9972768 1.0082446 1.062985 1.0616322 1.2591289 1.0282089 0.9966396
1.2404398 0.9947406 1.0470678 0.9994359 1.019625 0.9799562 1.2546284 1.2813284
