suka.onnx (onnx, 206810 bytes, 9 tensors)

layer1.weight f4 [32, 1536]
0.011329514 0.010869947 0.0007712104 -0.013743589 0.00085771986 0.020017345 9.126913e-05 0.026445622
-0.01767802 -0.014831568 -0.017364651 -0.021127209 -0.014451513 0.012613445 0.036757957 -0.01835712
0.0078465585 0.024941536 -0.0024068179 0.017400334 -0.026707212 -0.011166906 0.029231563 -0.017307788
0.036167264 0.015599591 -0.01569201 -0.052394874 0.011182461 -0.0003010993 0.02404372 -0.001671479
0.01426316 0.01197304 0.013964527 0.02273537 -0.015802827 0.006629561 -0.0024598741 -0.017461287
0.029774636 0.017189555 0.015255149 0.0008678647 0.021011679 -0.020942738 0.030634524 -0.022772996
0.011588345 -0.010920354 -0.015533531 -0.022558613 0.01191651 0.02286467 0.0037929672 0.019931601
0.00082571775 0.00937581 0.015358073 -0.0020633247 0.023696048 -0.004667498 0.026999032 -0.016517853
-0.0045516416 0.013156455 0.037411693 -7.52275e-05 -0.0050707893 -0.0093974 0.0108706495 0.00018953765
0.018319244 0.0065630414 -0.017278073 -0.018215304 -0.008358201 0.0075960318 -0.009126711 0.026678504
-0.015249555 -0.0026451668 -0.0067291926 0.007996729 0.014868706 -0.03226822 0.0014521228 -0.017637243
-0.024996616 -0.005645857 -0.016906623 -0.03031301 -0.017262936 -0.018719329 0.0151023995 0.024004813
-0.017543148 0.025707388 -0.026805906 0.012298994 0.027206574 0.0024021997 -0.009812017 0.015759418
-0.028138056 -0.0067255315 -0.0042045126 -0.034843497 -0.016394917 0.025463657 0.0026273832 -0.0141084315
-0.025147889 0.0094195595 -0.012107157 0.015551313 -0.034980197 -0.01749707 0.009732376 0.0013610371
0.008131618 0.013060361 -0.023148082 -0.04512006 -0.00094274624 -0.023053966 -0.0056318613 -0.013922169
0.019560626 0.009132963 0.025054583 0.008807193 0.00056732685 0.0017313235 -0.026195457 -0.016653579
0.0024885267 -0.0055182064 0.016574776 0.00853379 0.003015007 -0.0049960203 0.025289599 -0.004148367
-0.018599898 0.012334085 0.009724195 0.010488664 0.0045784293 0.00061994954 -0.0050542513 -0.01563843
-0.0014707022 -0.018703546 0.01990327 -0.020521766 0.029039748 -0.009194184 0.009137043 0.0002258057
-0.028648641 -0.0075472235 0.03509016 -0.012698383 -0.012609988 0.0021364267 0.004668014 0.012330576
0.013081205 -0.018703831 0.009647568 -0.002444142 0.007729006 -0.0061453045 -0.01869541 0.018279878
-0.007782833 0.013155145 -0.000938929 0.009696542 -0.011956595 -0.035195686 0.0018881719 -0.025178893
-0.0018952016 0.0015990289 0.02132388 -0.010853486 -0.013563695 0.023471316 0.0020385103 0.011036394
-0.007186576 -0.009825296 0.0036472129 -0.0016052171 -0.0072899717 -0.023260888 0.004454378 0.02836518
-0.006182254 -0.0030899774 0.009809818 -0.012409237 0.019406132 0.013900675 -0.0062419274 -0.0018587938
0.018507427 -0.0036731467 -0.008118786 0.02520439 -0.016136887 0.022610331 -0.008245977 0.01759033
0.017303841 -0.012955798 0.0135967955 -0.009417334 -0.0111213885 -0.027867965 0.017297056 -0.02527905
-0.0011220473 0.013877361 0.010866822 0.016292142 0.019322267 0.024085248 0.014940775 0.014630815
0.024669658 0.0017073684 0.00896392 0.0128690805 -0.013430561 0.014988407 0.024817586 0.0020407455
0.009563232 0.038696457 0.0206911 -0.0018698364 -0.018840803 0.041615717 0.013924049 0.016544031
0.00834936 -0.024939908 -0.006269648 0.011744477 -0.006777603 -0.023427075 -0.018180536 -0.0032567221
00000000: 6d9f 393c dd17 323c 0e2b 4a3a ca2c 61bc
00000010: 9bd8 603a 6afb a33c be67 bf38 7da4 d83c
00000020: 7fd1 90bc 1b00 73bc 5040 8ebc f812 adbc
00000030: 0ac6 6cbc 9fa8 4e3c 838f 163d ac61 96bc
00000040: da8e 003c 3152 cc3c b4bb 1dbb 258b 8e3c
00000050: 15c9 dabc 66f5 36bc 0877 ef3c 10c9 8dbc
00000060: 2024 143d 6d95 7f3c 888c 80bc 029c 56bd
00000070: a436 373c dddc 9db9 56f7 c43c 8715 dbba
00000080: 07b0 693c 922a 443c 79cb 643c 873f ba3c
00000090: ee74 81bc ca3c d93b d735 21bb f90a 8fbc
000000a0: f0e9 f33c 1cd1 8c3c bcf0 793c 6a81 633a
000000b0: af20 ac3c 1b90 abbc 41f5 fa3c 6f8e babc
000000c0: 0bdd 3d3c 49eb 32bc 5a80 7ebc d7cc b8bc
000000d0: 773d 433c b04e bb3c 6e93 783b 9947 a33c
000000e0: fb74 583a ff9c 193c 6da0 7b3c d838 07bb
000000f0: 371e c23c d0f1 98bb 132d dd3c 7350 87bc
00000100: f025 95bb 2c8e 573c 013d 193d 75c3 9db8
00000110: dd28 a6bb 8df7 19bc cf1a 323c a0be 4639
00000120: 3d12 963c c80e d73b bf8a 8dbc 4338 95bc
00000130: d6f0 08bc 22e8 f83b 3388 15bc e18c da3c
00000140: 45d9 79bc 895a 2dbb 8f80 dcbb b604 033c
00000150: e09b 733c ae2b 04bd 2855 be3a fb7b 90bc
00000160: b4c5 ccbc e200 b9bb c27f 8abc fd52 f8bc
00000170: 006b 8dbc 4759 99bc 0e70 773c bea5 c43c
00000180: a6b6 8fbc 4d98 d23c 0f98 dbbc b881 493c
00000190: 52e0 de3c 396e 1d3b 95c2 20bc e519 813c
000001a0: c881 e6bc d961 dcbb 02c6 89bb 0eb8 0ebd
000001b0: a24e 86bc 2999 d03c 2d30 2c3b 0d27 67bc
000001c0: f202 cebc 7f54 1a3c 195d 46bc efca 7e3c
000001d0: 6547 0fbd 0456 8fbc 8b74 1f3c d464 b23a
000001e0: 7a3a 053c 20fb 553c 0ca1 bdbc d0cf 38bd
000001f0: a122 77ba acdb bcbc 7a8b b8bb cf19 64bc
00000200: 9b3d a03c 6ca2 153c 453f cd3c 0b4c 103c
00000210: a9b8 143a 94ed e23a db97 d6bc 166d 88bc
00000220: 8d16 233b 12d2 b4bb d3c7 873c 4fd1 0b3c
00000230: 6c97 453b a8b5 a3bb 222c cf3c 06ef 87bb
00000240: d05e 98bc e714 4a3c 3b52 1f3c a5d8 2b3c
00000250: a606 963b 1c84 223a 229e a5bb 2a1c 80bc
00000260: 94c4 c0ba 2e38 99bc 2f0c a33c 431d a8bc
00000270: c4e4 ed3c 34a3 16bc 89b3 153c 42c6 6c39
00000280: 8eb0 eabc b34e f7bb b3ba 0f3d e10c 50bc
00000290: 209a 4ebc 4b03 0c3b 24f6 983b 2f06 4a3c
000002a0: 8d52 563c c738 99bc d510 1e3c e62d 20bb
000002b0: 9a43 fd3b 8d5e c9bb 1e27 99bc afbf 953c
000002c0: 2307 ffbb ad88 573c 7522 76ba 3fde 1e3c
000002d0: 98e5 43bc 5a29 10bd 897c f73a f743 cebc
000002e0: 6a68 f8ba 8296 d13a 6baf ae3c d2d2 31bc
000002f0: 433a 5ebc eb46 c03c 8798 053b fed1 343c
00000300: 5e7d ebbb 47fa 20bc 1406 6f3b 2666 d2ba
00000310: b7e0 eebb 9e8d bebc 08f6 913b 185e e83c
00000320: 8194 cabb 3881 4abb 5cb9 203c 1d50 4bbc
00000330: 9cf9 9e3c a8bf 633c 1589 ccbb c5a2 f3ba
00000340: e39c 973c 2db9 70bb a804 05bc 7079 ce3c
00000350: 8131 84bc 4d39 b93c 221a 07bc 9919 903c
00000360: c9c0 8d3c 8e44 54bc 18c5 5e3c 294b 1abc
00000370: 7c36 36bc 5c4b e4bc 8eb2 8d3c 0316 cfbc
00000380: a911 93ba df5d 633c c10a 323c 1977 853c
00000390: bb49 9e3c 6d4e c53c 27ca 743c 16b6 6f3c
000003a0: 0618 ca3c c7c9 df3a 68dd 123c d6d8 523c
000003b0: db0b 5cbc ef91 753c 404e cb3c 07be 053b
000003c0: 1aaf 1c3c 2d80 1e3d 6280 a93c 4c15 f5ba
000003d0: 0758 9abc 3e75 2a3d b221 643c 5987 873c
000003e0: c1cb 083c c74e ccbc 9f71 cdbb e86b 403c
000003f0: a816 debb 23ea bfbc 59ef 94bc bb6e 55bb

layer1.bias f4 [32]
-0.0031494193 0.013458459 0.0011775153 -0.019107565 -0.026305469 -0.015947325 -0.017932257 0.0018563604
0.0070607695 0.01009803 -0.0018299334 0.019079946 -0.016832665 -0.015094168 0.019506091 0.0064581167
0.0054895985 0.010678898 0.012029596 -0.008249569 -0.019344216 0.01797337 0.002633281 0.024036754
-0.00015795493 -0.015442545 0.005561902 0.004460642 0.008629824 -0.0032436037 0.0054195477 0.0073369658
00000000: 7d66 4ebb de80 5c3c db56 9a3a 7887 9cbc
00000010: 917e d7bc f7a3 82bc abe6 92bc 1e51 f33a
00000020: 075e e73b 3572 253c 60da efba 8c4d 9c3c
00000030: a8e4 89bc 874d 77bc 3dcb 9f3c 9c9e d33b
00000040: 17e2 b33b 8bf6 2e3c c817 453c 3329 07bc
00000050: c377 9ebc e43c 933c 2093 2c3b bae8 c43c
00000060: b4a0 25b9 ba02 7dbc 9e40 b63b 942a 923b
00000070: 1b64 0d3c a492 54bb 7696 b13b ee6a f03b

layernorm1.weight f4 [32]
0.99369764 0.97541094 0.97784233 1.0242475 0.9829907 0.9845055 0.98468006 1.0029421
0.9871522 0.9873952 0.9962127 0.9912288 1.0299493 1.0337176 0.994251 0.9807577
0.99256104 0.99159247 1.0187751 1.002218 1.0489323 1.0284059 0.99118465 0.9839786
0.9954228 1.0142817 0.97871506 0.9657498 0.9368115 0.9967927 0.99060404 0.9973755
00000000: f862 7e3f 88b4 793f e053 7a3f 8b1a 833f
00000010: 47a5 7b3f 8d08 7c3f fe13 7c3f 6860 803f
00000020: 02b6 7c3f efc5 7c3f cc07 7f3f 2cc1 7d3f
00000030: 61d5 833f dc50 843f 3c87 7e3f f012 7b3f
00000040: 7b18 7e3f 01d9 7d3f 3967 823f ae48 803f
00000050: 6a43 863f cea2 833f 47be 7d3f 06e6 7b3f
00000060: 07d4 7e3f fcd3 813f 128d 7a3f 613b 773f
00000070: e1d2 6f3f ce2d 7f3f 3a98 7d3f 0054 7f3f

layernorm1.bias f4 [32]
-0.0017125456 -0.016424105 -0.01656068 0.0046711154 -0.009944955 -0.003463818 -0.024869403 0.0027774232
-0.0059632147 -0.010319311 -0.012182384 -0.034445927 0.010911875 0.009276203 -0.009716481 -0.008689027
-0.0023015442 -0.009091687 0.0046131876 0.006137059 0.042777725 0.008439539 -0.008907492 -0.014619599
0.018505992 0.0067638713 -0.013023124 0.0008673127 0.0024783418 0.0015960387 -0.014877595 -0.011023946
00000000: 7f77 e0ba d88b 86bc 43aa 87bc 2810 993b
00000010: 2af0 22bc 3901 63bb ebba cbbc 6e05 363b
00000020: 1267 c3bb 5412 29bc 9f98 47bc 2c17 0dbd
00000030: b9c7 323c 37fb 173c e031 1fbc 6c5c 0ebc
00000040: 81d5 16bb 4df5 14bc 392a 973b 6219 c93b
00000050: b237 2f3d fe45 0a3c bbf0 11bc 0b87 6fbc
00000060: e199 973c 77a3 dd3b f15e 55bc 5f5c 633a
00000070: ad6b 223b 2c32 d13a 28c1 73bc c89d 34bc

blocks.0.fcn_layer.weight f4 [32, 32]
-0.02445802 -0.027439846 0.07272815 0.14302854 0.083710626 -0.11236192 0.0029089986 -0.024879938
0.09720428 0.02830799 0.14357741 -0.16223806 -0.06701484 -0.2005615 0.04623588 0.0020827411
0.12664054 -0.15393543 -0.20294163 -0.010543023 0.14390527 -0.011080788 0.1306262 0.13312021
0.0047256476 -0.054876547 0.14360838 -0.023620933 -0.14230625 0.03131113 -0.07646638 0.08806048
-0.09117117 0.13585627 -0.08010129 0.116041526 0.038465295 -0.06221469 0.042721566 0.050517816
-0.024081843 0.117319554 0.025200348 0.011726949 0.034175973 -0.021002354 -0.038810436 0.14050429
-0.14566666 -0.05591763 0.039763767 0.08929502 0.0018673575 -0.043266326 0.11223918 0.16186146
-0.1448964 -0.10021304 -0.12290993 -0.09885491 -0.16178136 0.18807818 0.12049791 0.12506811
-0.05022494 -0.094295144 0.16551308 -0.011719842 0.068689846 -0.10191335 -0.04398316 -0.15990658
0.010136487 -0.01869402 -0.046603713 0.014205793 0.0573922 0.120380215 -0.0071259364 -0.16757472
-0.0913782 -0.04277266 -0.01462003 -0.050055366 0.0838731 -0.05562407 -0.108414605 0.07109794
-0.1280058 -0.06586273 -0.08485186 -0.12036786 0.07994272 0.061191108 -0.0113970535 0.09654667
0.08110532 0.02694503 -0.11831992 -0.10373482 0.13637896 0.009283552 -0.03899098 -0.09589312
0.015552782 0.11881107 -0.13973579 -0.13878988 -0.022607677 -0.11419442 0.022053374 -0.1561732
-0.14092061 -0.07998909 -0.09442417 -0.073113926 0.09120409 0.15292242 -0.09918596 0.025526807
-0.014752541 0.07897041 -0.05351146 -0.011869847 0.08067322 -0.11974713 0.13538124 0.04733939
-0.038053803 -0.013667605 0.13543217 0.13800529 -0.12430695 -0.047434837 -0.07740596 0.080246635
-0.09849016 -0.15861821 -0.16100638 0.15402667 -0.13576409 -0.027528953 0.12616201 0.009558045
0.06672223 -0.07485955 0.20836067 0.07732905 -0.0474569 0.010252129 -8.994044e-05 -0.020231053
0.1350292 -0.0024584446 0.1450801 -0.03954881 0.001643547 0.018974395 0.04140216 -0.08477673
-0.17106763 0.008629436 0.056183342 0.021497479 -0.06627299 -0.15617402 -0.13340575 0.11931695
0.11286291 0.04242165 0.03288077 0.12512788 -0.18185998 0.11643449 0.065333806 0.15740405
0.08173564 0.071463585 -0.075374275 -0.13724107 0.07593599 0.04928755 -0.035138123 0.037782256
-0.17477393 0.09274293 0.025505869 0.13922694 0.11193583 -0.0655916 -0.17124172 -0.09735744
0.05395453 0.09366636 0.051328145 -0.1078885 0.14644423 -0.12580073 -0.15606798 -0.094148934
-0.15643615 -0.049951084 -0.10197552 0.1477085 0.2126184 -0.03627211 -0.10494107 -0.10496295
0.02293691 -0.025078973 -0.10139102 0.09861478 0.08573568 -0.14753628 -0.03238824 -0.08595707
0.11351884 0.10697391 -0.10485246 -0.070056275 0.15756017 0.13780393 -0.14320083 -0.106511384
-0.074982986 0.119137585 0.0608137 -0.1353161 0.08192272 -0.0015523883 0.085586496 -0.12997878
-0.1680691 0.005293854 -0.049745526 0.099478886 -0.05902247 -0.03117967 0.040510025 0.06562053
0.016663454 -0.0586661 0.06573439 0.034439642 -0.11086404 0.030924816 0.03319621 0.08080269
0.14632523 0.09930058 0.15808707 -0.1763387 0.09416977 0.09375534 -0.04174757 0.008916195
00000000: 305c c8bc 87c9 e0bc 7ff2 943d 1376 123e
00000010: 7a70 ab3d 021e e6bd e6a4 3e3b 03d1 cbbc
00000020: 0a13 c73d 28e6 e73c f505 133e bc21 26be
00000030: 143f 89bd fe5f 4dbe d661 3d3d 997e 083b
00000040: 0fae 013e 40a1 1dbe eecf 4fbe a5bc 2cbc
00000050: e75b 133e 328c 35bc e0c2 053e aa50 083e
00000060: 9bd9 9a3b 3bc6 60bd 130e 133e b080 c1bc
00000070: bbb8 11be 1940 003d 689a 9cbd 0e59 b43d
00000080: f3b7 babd e81d 0b3e 250c a4bd 2ea7 ed3d
00000090: c98d 1d3d d5d4 7ebd cffc 2e3d c5eb 4e3d
000000a0: 4947 c5bc 3c45 f03d f670 ce3c 6422 403c
000000b0: 1bfc 0b3d 210d acbc b1f7 1ebd 5be0 0f3e
000000c0: a429 15be e309 65bd 55df 223d 4fe0 b63d
000000d0: 1fc2 f43a 0838 31bd a8dd e53d 03bf 253e
000000e0: b95f 14be 7f3c cdbd 34b8 fbbd 7174 cabd
000000f0: 03aa 25be 9197 403e 9cc7 f63d db11 003e
00000100: abb8 4dbd d01d c1bd 437c 293e 9504 40bc
00000110: 43ad 8c3d f2b7 d0bd b027 34bd 8dbe 23be
00000120: 8213 263c 3424 99bc 89e3 3ebd 6abf 683c
00000130: 1514 6b3d e789 f63d b080 e9bb b598 2bbe
00000140: 7e24 bbbd 6232 2fbd da88 6fbc db06 4dbd
00000150: a9c5 ab3d 11d6 63bd 7a08 debd cc9b 913d
00000160: f413 03be 0ae3 86bd d0c6 adbd 6d83 f6bd
00000170: 02b9 a33d 87a3 7a3d b5ba 3abc 43ba c53d
00000180: 8c1a a63d d3bb dc3c b751 f2bd ec72 d4bd
00000190: eda6 0b3e 0a1a 183c 01b5 1fbd 9d63 c4bd
000001a0: 19d1 7e3c 3853 f33d e616 0fbe ef1e 0ebe
000001b0: bc33 b9bc c4de e9bd 47a9 b43c deeb 1fbe
000001c0: 7e4d 10be 52d1 a3bd 7661 c1bd c1bc 95bd
000001d0: 36c9 ba3d b297 1c3e 0222 cbbd 981d d13c
000001e0: a4b4 71bc 3dbb a13d d52e 5bbd bf79 42bc
000001f0: 0038 a53d fc3d f5bd 61a1 0a3e f3e6 413d
00000200: 4ede 1bbd 17ee 5fbc bbae 0a3e 4251 0d3e
00000210: a494 febd 084b 42bd 0487 9ebd 5958 a43d
00000220: 36b5 c9bd d06c 22be dbde 24be 2bb9 1d3e
00000230: be05 0bbe 6684 e1bc 9d30 013e 5999 1c3c
00000240: aaa5 883d f74f 99bd 805c 553e b15e 9e3d
00000250: 2b62 42bd 8cf8 273c 689e bcb8 98bb a5bc
00000260: 1845 0a3e db1d 21bb e18f 143e effd 21bd
00000270: 496c d73a 3170 9b3c 5095 293d 6c9f adbd
00000280: 5a2c 2fbe 7a62 0d3c 8120 663d 7b1b b03c
00000290: 22ba 87bd 15ec 1fbe 849b 08be 725c f43d
000002a0: ab24 e73d 53c2 2d3d fcad 063d 8621 003e
000002b0: 8139 3abe 3575 ee3d bbcd 853d 872e 213e
000002c0: 0465 a73d 805b 923d d45d 9abd ec88 0cbe
000002d0: 5484 9b3d bee1 493d feec 0fbd 91c1 1a3d
000002e0: f0f7 32be 01f0 bd3d aff1 d03c 8291 0e3e
000002f0: 9d3e e53d e454 86bd fd59 2fbe 5663 c7bd
00000300: 6dff 5c3d 26d4 bf3d 763d 523d a5f4 dcbd
00000310: 7af5 153e e8d1 00be 49d0 1fbe 28d1 c0bd
00000320: cc30 20be 8299 4cbd 8bd8 d0bd e640 173e
00000330: a3b8 593e 1092 14bd 58eb d6bd d1f6 d6bd
00000340: 30e6 bb3c 6b72 cdbc 18a6 cfbd 8cf6 c93d
00000350: 3096 af3d c013 17be 88a9 04bd 430a b0bd
00000360: 917c e83d 2315 db3d e3bc d6bd aa79 8fbd
00000370: 7457 213e 791c 0d3e 3da3 12be a422 dabd
00000380: ae90 99bd 68fe f33d c917 793d 4e90 0abe
00000390: 19c7 a73d 8279 cbba f947 af3d 2819 05be
000003a0: 4e1a 2cbe 1178 ad3b f7c1 4bbd 96bb cb3d
000003b0: 8cc1 71bd 826c ffbc d7ed 253d 0e64 863d
000003c0: cc81 883c dd4b 70bd c09f 863d 9510 0d3d
000003d0: b00c e3bd 0a56 fd3c c0f8 073d e17b a53d
000003e0: 48d6 153e 1a5e cb3d 94e1 213e 2292 34be
000003f0: 15dc c03d cd02 c03d 80ff 2abd 3b15 123c

blocks.0.fcn_layer.bias f4 [32]
-0.019023262 -0.046634596 -0.099849574 -0.080178834 0.0027938064 0.14525601 -0.060157385 0.050871536
-0.0694667 0.14285244 -0.034860134 -0.09908681 0.104413874 -0.06760895 0.1505656 -0.005019033
0.17062154 0.03343825 0.11262523 0.038494457 0.12031737 -0.0039331666 -0.03208085 -0.0019504097
0.05755392 -0.11973756 0.055713072 0.015442802 0.00038030703 -0.07069252 -0.010606137 0.05977622
00000000: acd6 9bbc eb03 3fbd ef7d ccbd cd34 a4bd
00000010: 4b18 373b febd 143e 9767 76bd ac5e 503d
00000020: 8f44 8ebd e947 123e 80c9 0ebd 07ee cabd
00000030: f1d6 d53d 9076 8abd de2d 1a3e b376 a4bb
00000040: 6ab7 2e3e 8cf6 083d 0ea8 e63d 5dac 1d3d
00000050: f468 f63d cbe1 80bb 3667 03bd e4a4 ffba
00000060: a9bd 6b3d f738 f5bd 6433 643d ce03 7d3c
00000070: f263 c739 3dc7 90bd 5dc5 2dbc e9d7 743d

blocks.0.layer_norm.weight f4 [32]
1.0391115 1.0028845 0.9843725 1.0296514 1.2396425 1.2071261 1.0609058 0.9942784
1.101898 1.2760013 0.99338025 0.97185135 0.998265 1.2463188 1.0631102 1.0031681
0.9974865 1.2497706 0.9909554 0.9769884 1.240638 0.9958639 0.99574554 0.9893468
0.9958008 1.0105221 1.0575771 1.2461879 1.232641 1.0941722 1.1200144 1.2990355
00000000: 9b01 853f 855e 803f d6ff 7b3f 9ecb 833f
00000010: 9bac 9e3f 1c83 9a3f c3cb 873f 0789 7e3f
00000020: fe0a 8d3f 0354 a33f 2b4e 7e3f 40cb 783f
00000030: 4c8e 7f3f 6087 9f3f ff13 883f d067 803f
00000040: 465b 7f3f 7cf8 9f3f 41af 7d3f e91b 7a3f
00000050: 3acd 9e3f f0f0 7e3f 2ee9 7e3f d545 7d3f
00000060: cdec 7e3f ca58 813f b05e 873f 1683 9f3f
00000070: 2ec7 9d3f d60d 8c3f a25c 8f3f cc46 a63f

blocks.0.layer_norm.bias f4 [32]
0.008525669 0.0012604217 -0.024926929 0.04593375 0.23476516 0.22514455 0.023935582 -0.009030116
0.10814306 0.25178683 -0.011059826 -0.01584035 -0.0074214907 0.23470394 0.03747963 0.010247045
-0.004832941 0.2429219 -0.0028789027 -0.031634737 0.23102508 -0.01631422 -0.004658408 -0.010593811
-0.0067197555 0.012841523 0.03573694 0.24038713 0.22881569 0.05246258 0.06031694 0.2589853
00000000: 3faf 0b3c bc34 a53a 8f33 ccbc 0725 3c3d
00000010: 4766 703e 4b8c 663e 8e14 c43c 0df3 13bc
00000020: 1c7a dd3d 34ea 803e 4634 35bc 9fc3 81bc
00000030: fa2f f3bb 3b56 703e 3e84 193d 39e3 273c
00000040: a65d 9ebb 85c0 783e f9ab 3cbb 6d93 01bd
00000050: d791 6c3e 66a5 85bc 8fa5 98bb aa91 2dbc
00000060: 6531 dcbb 4065 523c e660 123d 0b28 763e
00000070: a94e 6a3e 01e3 563d e50e 773d b999 843e

last_layer.weight f4 [1, 32]
0.13471726 0.057177894 -0.086064965 0.14245108 -0.35548168 -0.34959868 0.07745716 0.003278314
0.23249762 -0.3299883 -0.03077259 -0.00240576 0.024976997 -0.36326072 0.14882302 -0.041997835
0.05347198 -0.32506728 0.11075723 -0.05366966 -0.3857211 0.0573941 -0.13511506 -0.015293979
0.006013409 0.08812038 0.10791392 -0.3364476 -0.37452817 0.1864533 0.27559736 -0.36059976
00000000: 52f3 093e 5e33 6a3d d442 b0bd b2de 113e
00000010: b201 b6be 99fe b2be dca1 9e3d fbd8 563b
00000020: db13 6e3e 3af4 a8be cc16 fcbc f5a9 1dbb
00000030: 8f9c cc3c 4ffd b9be 1065 183e ec05 2cbd
00000040: 6f05 5b3d 386f a6be b0d4 e23d b8d4 5bbd
00000050: 3c7d c5be 1316 6b3d 9a5b 0abe 9993 7abc
00000060: 210c c53b 7578 b43d f901 dd3d dc42 acbe
00000070: 28c2 bfbe 9ded 3e3e 191b 8d3e 88a0 b8be
